…
.execute_reply.started":"2024-12-24T11:22:02.051328Z","shell.execute_reply":"2024-12-24T11:22:02.054653Z"}},"outputs":[],"execution_count":21},{"cell_type":"code","source":"m","metadata":{"trusted":true,"execution":{"iopub.status.busy":"2024-12-24T11:22:14.493761Z","iopub.execute_input":"2024-12-24T11:22:14.494073Z","iopub.status.idle":"2024-12-24T11:22:14.499712Z","shell.execute_reply.started":"2024-12-24T11:22:14.494019Z","shell.execute_reply":"2024-12-24T11:22:14.498836Z"}},"outputs":[{"execution_count":22,"output_type":"execute_result","data":{"text/plain":"Transformer(\n  (embedding_table): Embedding(44, 32)\n  (positional_embedding_table): Embedding(8, 32)\n  (sa_head): SingleHead(\n    (key): Linear(in_features=32, out_features=32, bias=False)\n    (query): Linear(in_features=32, out_features=32, bias=False)\n    (value): Linear(in_features=32, out_features=32, bias=False)\n  )\n  (lm_head): Linear(in_features=32, out_features=44, bias=True)\n)"},"metadata":{}}],"execution_count":22},{"cell_type":"code","source":"m.to(device)","metadata":{"trusted":true,"execution":{"iopub.status.busy":"2024-12-24T11:25:06.818947Z","iopub.execute_input":"2024-12-24T11:25:06.819275Z","iopub.status.idle":"2024-12-24T11:25:06.825456Z","shell.execute_reply.started":"2024-12-24T11:25:06.819247Z","shell.execute_reply":"2024-12-24T11:25:06.824624Z"}},"outputs":[{"execution_count":31,"output_type":"execute_result","data":{"text/plain":"Transformer(\n  (embedding_table): Embedding(44, 32)\n  (positional_embedding_table): Embedding(8, 32)\n  (sa_head): SingleHead(\n    (key): Linear(in_features=32, out_features=32, bias=False)\n    (query): Linear(in_features=32, out_features=32, bias=False)\n    (value): Linear(in_features=32, out_features=32, bias=False)\n  )\n  (lm_head): Linear(in_features=32, out_features=44, bias=True)\n)"},"metadata":{}}],"execution_count":31},{"cell_type":"code","source":"optimizer = torch.optim.AdamW(m.parameters(), lr=learning_rate)","metadata":{"trusted":true,"execution":{"iopub.status.busy":"2024-12-24T11:22:26.895822Z","iopub.execute_input":"2024-12-24T11:22:26.896156Z","iopub.status.idle":"2024-12-24T11:22:27.808992Z","shell.execute_reply.start
…
.execute_reply.started":"2024-12-24T11:32:05.328250Z","shell.execute_reply":"2024-12-24T11:32:05.334445Z"}},"outputs":[],"execution_count":48},{"cell_type":"code","source":"m","metadata":{"trusted":true,"execution":{"iopub.status.busy":"2024-12-24T11:32:12.494955Z","iopub.execute_input":"2024-12-24T11:32:12.495262Z","iopub.status.idle":"2024-12-24T11:32:12.500094Z","shell.execute_reply.started":"2024-12-24T11:32:12.495238Z","shell.execute_reply":"2024-12-24T11:32:12.499385Z"}},"outputs":[{"execution_count":49,"output_type":"execute_result","data":{"text/plain":"Transformer(\n  (embedding_table): Embedding(44, 32)\n  (positional_embedding_table): Embedding(8, 32)\n  (sa_heads): MultiHeadAttention(\n    (heads): ModuleList(\n      (0-3): 4 x SingleHead(\n        (key): Linear(in_features=32, out_features=8, bias=False)\n        (query): Linear(in_features=32, out_features=8, bias=False)\n        (value): Linear(in_features=32, out_features=8, bias=False)\n      )\n    )\n  )\n  (lm_head): Linear(in_features=32, out_features=44, bias=True)\n)"},"metadata":{}}],"execution_count":49},{"cell_type":"code","source":"for steps in range(max_iters):\n    ##Sampling out a batch from the training set\n    xb, yb = get_batch('train')\n    \n    ##Evaluating the loss\n    scores, loss = m(xb, yb)\n    optimizer.zero_grad(set_to_none=True)\n    ##Running backward propagation\n    loss.backward()\n    #
…
.execute_reply.started":"2024-12-24T11:35:37.880144Z","shell.execute_reply":"2024-12-24T11:35:37.886421Z"}},"outputs":[],"execution_count":57},{"cell_type":"code","source":"m","metadata":{"trusted":true,"execution":{"iopub.status.busy":"2024-12-24T11:35:44.228554Z","iopub.execute_input":"2024-12-24T11:35:44.228827Z","iopub.status.idle":"2024-12-24T11:35:44.234027Z","shell.execute_reply.started":"2024-12-24T11:35:44.228805Z","shell.execute_reply":"2024-12-24T11:35:44.233090Z"}},"outputs":[{"execution_count":58,"output_type":"execute_result","data":{"text/plain":"Transformer(\n  (embedding_table): Embedding(44, 32)\n  (positional_embedding_table): Embedding(8, 32)\n  (sa_heads): MultiHeadAttention(\n    (heads): ModuleList(\n      (0-3): 4 x SingleHead(\n        (key): Linear(in_features=32, out_features=8, bias=False)\n        (query): Linear(in_features=32, out_features=8, bias=False)\n        (value): Linear(in_features=32, out_features=8, bias=False)\n      )\n    )\n  )\n  (ffn): FeedForward(\n    (ffn): Sequential(\n      (0): Linear(in_features=32, out_features=32, bias=True)\n      (1): ReLU()\n    )\n  )\n  (lm_head): Linear(in_features=32, out_features=44, bias=True)\n)"},"metadata":{}}],"execution_count":58},{"cell_type":"code","source":"optimizer = torch.optim.AdamW(m.parameters(), lr=learning_rate)","metadata":{"trusted":true,"execution":{"iopub.status.busy":"2024-12-24T11:35:54.395155Z","iopub.execute_input":"2024-12-24T11:35:54.395473Z","iopub.status.idle":"2024-12-24T11:35:54.400009Z","shell.execute_reply.start
…
.execute_reply.started":"2024-12-24T11:38:49.544664Z","shell.execute_reply":"2024-12-24T11:38:49.579800Z"}},"outputs":[],"execution_count":67},{"cell_type":"code","source":"m","metadata":{"trusted":true,"execution":{"iopub.status.busy":"2024-12-24T11:38:55.439738Z","iopub.execute_input":"2024-12-24T11:38:55.440189Z","iopub.status.idle":"2024-12-24T11:38:55.446584Z","shell.execute_reply.started":"2024-12-24T11:38:55.440156Z","shell.execute_reply":"2024-12-24T11:38:55.445783Z"}},"outputs":[{"execution_count":68,"output_type":"execute_result","data":{"text/plain":"Transformer(\n  (embedding_table): Embedding(44, 32)\n  (positional_embedding_table): Embedding(8, 32)\n  (blocks): Sequential(\n    (0): Block(\n      (sa_heads): MultiHeadAttention(\n        (heads): ModuleList(\n          (0-31): 32 x SingleHead(\n            (key): Linear(in_features=32, out_features=8, bias=False)\n            (query): Linear(in_features=32, out_features=8, bias=False)\n            (value): Linear(in_features=32, out_features=8, bias=False)\n          )\n        )\n      )\n      (ffn): FeedForward(\n        (ffn): Sequential(\n          (0): Linear(in_features=32, out_features=32, bias=True)\n          (1): ReLU()\n        )\n      )\n    )\n    (1): Block(\n      (sa_heads): MultiHeadAttention(\n        (heads): ModuleList(\n          (0-31): 32 x SingleHead(\n            (key): Linear(in_features=32, out_features=8, bias=False)\n            (query): Linear(in_features=32, out_features=8, bias=False)\n            (value): Linear(in_features=32, out_features=8, bias=False)\n          )\n        )\n      )\n      (ffn): FeedForward(\n        (ffn): Sequential(\n          (0): Linear(in_features=32, out_features=32, bias=True)\n          (1): ReLU()\n        )\n      )\n    )\n    (2): Block(\n      (sa_heads): MultiHeadAttention(\n        (heads): ModuleList(\n          (0-31): 32 x SingleHead(\n            (key): Linear(in_features=32, out_features=8, bias=False)\n            (query): Linear(in_features=32, out_features=8, bias=False)\n            (value): Linear(in_features=32, out_features=8, bias=False)\n          )\n        )\n      )\n      (ffn): FeedForward(\n        (ffn): Sequential(\n          (0): Linear(in_features=32, out_features=32, bias=True)\n          (1): ReLU()\n        )\n      )\n    )\n  )\n  (lm_head): Linear(in_features=32, out_features=44, bias=True)\n)"},"metadata":{}}],"execution_count":68},{"cell_type":"code","source":"optimizer = torch.optim.AdamW(m.parameters(), lr = learning_rate)","metadata":{"trusted":true,"execution":{"iopub.status.busy":"2024-12-24T11:39:09.341034Z","iopub.execute_input":"2024-12-24T11:39:09.341341Z","iopub.status.idle":"2024-12-24T11:39:09.346587Z","shell.execute_reply.sta
…
